nn_model.pt (torch, 15127 bytes, 5 tensors)

weight f4 [32, 23]
000000 38 fe c0 bc a0 f4 ca 3c be f0 0b 3e 16 8d d1 3b
       -0.023558721 0.02477485 0.13666055 0.0063949926
000010 5b df a9 be 0d 13 86 3e c7 29 fd 3d 08 a0 a1 3e
       -0.3317822 0.2618641 0.12361484 0.31567407
000020 df cf 6a be a4 c3 c7 3d ae af 1a 3e 9e ba 61 3c
       -0.22930859 0.09754112 0.15106079 0.013777403
000030 a6 fe c6 3d 34 34 18 be 87 8a 5d be 02 e4 97 3e
       0.09716539 -0.14863664 -0.21634875 0.29666144
000040 ee 85 ec bd 95 56 9a 3e b2 8a 54 be 24 bf 30 be
       -0.115489826 0.30144182 -0.20756033 -0.17260414
000050 31 6a 58 3e ea 09 88 3e 47 cf 9e bc af 7c 89 bc
       0.21134259 0.26570064 -0.019385947 -0.016783087
000060 b1 0a 0d 3e 1c 43 8e 3e c9 b7 e1 3d 54 dc 07 bf
       0.1377361 0.27785575 0.11021382 -0.5307057
000070 08 f0 a5 be 98 cb 17 3e 2f 3c d9 bd 16 95 09 3d
       -0.32409692 0.14823759 -0.10607182 0.033589445
000080 85 76 6d bd d5 8e 80 3d b3 65 21 3e 6a a0 b5 bd
       -0.057974357 0.06277243 0.15761451 -0.08868487
000090 b2 66 f6 3c b2 67 97 be d0 57 72 3c 38 9f 20 be
       0.030078266 -0.295713 0.014791444 -0.15685737
0000a0 c7 bf f3 3b 73 2e 93 be de 99 07 3e eb 89 28 3c
       0.007438633 -0.28746375 0.1324229 0.010286788
0000b0 3e 5a 9f 3d 66 93 1e 3b bb d2 06 bd b8 f0 90 3d
       0.07780884 0.0024196743 -0.032915812 0.070771635
0000c0 88 94 aa 3e 9f 75 14 3e 5a 57 d5 be 4d e7 2a bf
       0.33316445 0.14497994 -0.41668206 -0.66759187
0000d0 e5 ed d6 bd e6 67 42 be 34 9c 01 be 88 1e 18 3e
       -0.104945935 -0.18984947 -0.12657243 0.14855397
0000e0 b1 9f 3e 3c 65 22 73 bd b0 ae 2a 3e dd 38 1a be
       0.011634753 -0.059358973 0.166682 -0.15060754
0000f0 c2 03 07 3e fe f1 b7 3b 38 41 cd 3b b2 70 af be
       0.13185027 0.0056135645 0.006263878 -0.34265667
000100 3a 9d 94 3d 25 bb 35 3e 79 e7 96 3e 0e 67 39 be
       0.07256551 0.17747171 0.29473475 -0.18105718
000110 82 3a 6d bb 0f 6a ea 3d ab 74 00 3f 73 d0 00 3f
       -0.0036198203 0.1144601 0.5017802 0.5031807
000120 db c8 e1 3d a1 e2 d0 3e 6a f2 00 c0 78 01 76 3f
       0.11024638 0.40797904 -2.0147958 0.9609599
000130 f1 f6 a4 bd e3 87 c9 3e f3 75 9e be 82 e6 0e 3e
       -0.08054913 0.39361486 -0.30949363 0.13955119
000140 96 d6 d5 3c 6f 39 ed 3e 99 c2 a4 3d dc 0f 31 3e
       0.0261033 0.4633288 0.08044929 0.17291206
000150 df 84 26 3e 9c 48 98 3e 28 0e c8 3e c3 9a ee bd
       0.16261624 0.29742897 0.390733 -0.11650612
000160 81 b1 c8 3e a1 fc 87 bd ae 7e 72 3d 2b 85 e0 bd
       0.39197925 -0.06639982 0.059202842 -0.109629
000170 17 4c 91 be 1f 0b 86 3c 01 43 e5 3e ae b6 b8 3e
       -0.28378364 0.016362725 0.44777682 0.36076874
000180 fb 9e b8 3d 68 6b 0e be 3d 31 28 3e 6f f9 44 bf
       0.09014698 -0.1390816 0.16425033 -0.76943105
000190 27 28 b1 bd 61 a1 f4 3e 51 36 da 3d 5e 9b 56 3e
       -0.086502366 0.47779372 0.10654891 0.20957705
0001a0 1d a6 30 3e dd c6 a6 3e 8d c3 5b 3e b6 26 25 3e
       0.17250867 0.32573596 0.21461315 0.16128048
0001b0 a8 e0 e0 3e a8 88 0c 3e 9d b6 f5 3d 96 a9 c6 3c
       0.439214 0.13724005 0.11997721 0.024250787
0001c0 df 6c c6 3e 6c e7 4f 3e dd 86 0c bd e2 4e 13 bc
       0.38754937 0.20303124 -0.034308303 -0.008990975
0001d0 99 47 14 bd f0 fd 2f be 84 6a 25 3c 28 b1 88 be
       -0.036201093 -0.17186713 0.010096196 -0.2669766
0001e0 18 71 26 3e c6 33 99 3e 0a ad 92 3e 88 aa a6 3d
       0.1625408 0.29922312 0.28647643 0.08137995
0001f0 74 20 1b be 99 09 e8 3d 08 31 6c 3d 47 3e cd 3e
       -0.15149099 0.113299556 0.057663947 0.40086576
000200 6f 03 65 3e 43 51 48 be 26 bc 9a bc ab dc 0b 3e
       0.22364591 -0.19562249 -0.018888544 0.13658397
000210 48 ba b3 be 9c 2d 41 3d 69 11 b2 3d 32 62 ee 3c
       -0.3510306 0.047162637 0.08694727 0.029099558
000220 c8 8d f3 3d 34 71 13 bd 86 bd 1b bb af db a0 3e
       0.11892277 -0.03599663 -0.0023764088 0.31417605
000230 81 81 e9 3e 54 96 ea 3e 4c 64 cd be 52 f2 ce bf
       0.45606616 0.45817816 -0.40115583 -1.61677
000240 0d da 3d be 35 8f 3f bf 44 07 17 bd d0 b2 c0 bb
       -0.18540211 -0.7482789 -0.036872163 -0.005880691
000250 cf 33 b9 3d a1 71 22 3d 19 28 84 3e b2 b7 71 be
       0.09043085 0.039659146 0.25811842 -0.2360523
000260 df 3a 5a 3d 01 f8 a8 3d 98 e6 c9 bd d4 4c c1 3c
       0.0532788 0.08250428 -0.098584354 0.023596205
000270 90 c3 12 bd 4d 8b c8 bd fb 5c 37 be f7 90 23 3d
       -0.035831034 -0.097921945 -0.17906563 0.03993317
000280 f4 ff 92 bb 53 43 d1 bc 5c 57 4f bd 5c 78 c1 3d
       -0.0044860784 -0.025544798 -0.05062042 0.09446785
000290 07 30 a9 3d 7c 3e 29 3f 44 d7 bf bf 62 b4 80 3e
       0.082611136 0.6611097 -1.4987569 0.2513762
0002a0 46 4c a1 bf c0 65 66 3e c0 8a cc 3e 91 89 f9 bd
       -1.2601402 0.22499752 0.39949608 -0.12184442
0002b0 2e 43 18 bd dd 82 6d 3e f6 57 fd 3d 2e ff 0a 3f
       -0.037173443 0.23194452 0.12370293 0.54295623
0002c0 2f 5a 19 be f2 ed 07 3e c5 10 1f be e0 83 3c 3e
       -0.14975809 0.13274363 -0.15533741 0.18409681
0002d0 61 36 6c 3d 32 72 c7 bc 46 cc 55 be 5e 21 c7 bc
       0.057669047 -0.024346445 -0.20878705 -0.024307903
0002e0 c7 d1 8c 3d 98 8b 88 3e 8d e9 40 bc fc b8 b5 be
       0.06875949 0.26669002 -0.011774433 -0.35492694
0002f0 4d 10 35 bf 42 08 0f 3e 47 d1 84 3d b1 69 dd 3e
       -0.70728 0.13967994 0.06485229 0.432447
000300 f9 0c 1e be fa 26 d3 be 5f 2b 51 be ac 4c 98 be
       -0.15434636 -0.41240674 -0.20426701 -0.29745996
000310 65 11 7f be 38 11 c6 be 34 29 b3 be 08 b8 71 be
       -0.24908979 -0.38685012 -0.34992373 -0.23605359
000320 7b 02 77 be 7e b2 21 3d 6d 20 96 bd 8e 85 bd 3a
       -0.2412204 0.039476864 -0.073304035 0.0014459358
000330 91 87 6c be a2 9f c0 bd 14 de 0c 3d 89 d4 8c bc
       -0.2309859 -0.094054475 0.034391478 -0.017191188
000340 8d 57 17 be 96 45 de 3e 71 40 5b 3e 36 5e 65 bd
       -0.14779492 0.43412465 0.21411301 -0.05599805
000350 20 d2 5c bf 98 c8 8a be 45 5d 52 bf 53 ef 0b 3d
       -0.86258125 -0.27106166 -0.8217357 0.034163784
000360 c3 b9 a0 3d 66 64 0c be c1 df 65 bb 87 77 55 3e
       0.07847931 -0.13710174 -0.0035075995 0.20846377
000370 91 7f 29 3d 04 a0 5b bd ff 86 61 bd 81 11 32 3e
       0.041381422 -0.0536194 -0.055060383 0.1738949
000380 bb f1 e7 3d 0d 08 36 be 69 7b bf bd 14 6b 6c be
       0.11325403 -0.17776509 -0.093497105 -0.23087722
000390 40 70 5e be 03 f4 d7 ba d4 8c b6 be a6 ea 31 3e
       -0.21722507 -0.0016475919 -0.35654318 0.17374668
0003a0 c2 48 dc 3e c5 8d f2 3e 14 87 25 3e 9a a5 6d bf
       0.4302426 0.47373787 0.1616481 -0.9283081
0003b0 34 cf 83 3e 32 a9 f1 bf 38 40 8c 3e 2f 11 0f 3f
       0.2574402 -1.8879759 0.27392745 0.55885595
0003c0 92 4e 2d be 91 a5 c2 bd ec e6 16 3e 48 ba 36 bd
       -0.16924503 -0.095042355 0.14736527 -0.044611245
0003d0 55 71 b3 3e 68 c9 27 3d 2a a8 24 3e 32 78 7d 3c
       0.35047403 0.04096356 0.16079774 0.015470551
0003e0 d2 c0 20 3c 58 cd af bd af 04 54 be 8b 44 7e be
       0.009811597 -0.08584088 -0.20704912 -0.24830835
0003f0 87 66 e7 3c 2d 9b 68 3e 84 a6 cc 3e 46 26 e1 3e
       0.028247131 0.22715445 0.3997079 0.43974513

bias f4 [32]
000000 c1 4c 56 be 8f cf 5a be be 54 97 3c b1 e4 f9 3c
       -0.20927717 -0.2136824 0.018473025 0.030504556
000010 46 00 91 3e b2 d8 90 3d 4d 1d 52 3e 77 bf 81 3e
       0.2832052 0.07072581 0.2051899 0.2534139
000020 6d b8 95 be 8c 54 de 3d 7c 75 1f 3e cf 6b a1 be
       -0.29242268 0.1085597 0.1557216 -0.31527564
000030 f3 d4 0e 3e 6b 00 95 3e be 97 ba bc 5b a6 df 3e
       0.13948421 0.2910188 -0.022777434 0.43681607
000040 bf 0d 92 3d be bb a7 3e 05 45 c0 3e 54 75 e6 3d
       0.07131528 0.32760423 0.37552658 0.11252847
000050 bd bc 04 be 2d 64 e8 bd a3 4b 7a be 39 ff 88 bd
       -0.12962623 -0.11347232 -0.24442916 -0.06689305
000060 ff 6b 1b be 88 49 a8 be 0f eb 67 be 09 c6 8a 3e
       -0.15177916 -0.328686 -0.22648261 0.27104214
000070 c2 ec 94 bd 71 dd 84 3e f2 82 7a 3d 68 6a 09 3f
       -0.072717205 0.25950196 0.061160035 0.5367799

weight f4 [64, 32]
000000 91 3b 96 bc 92 fe 1c 3c f8 01 ab bb 42 80 7b 3b
       -0.01833895 0.009582179 -0.0052187406 0.0038376008
000010 a8 a5 51 3d bb 47 6a 3d dc 7a 1a bc 67 81 03 3d
       0.051183373 0.057197314 -0.009428706 0.03210583
000020 37 e6 7f 3c 16 d8 36 3c 5f 6c ad 3c d4 be 54 bd
       0.015618852 0.011159917 0.02116984 -0.0519398
000030 4c 74 11 be b0 42 e0 3d eb 67 76 bd 76 fe 07 3e
       -0.1420452 0.1095022 -0.060157698 0.13280663
000040 28 54 f7 bc 16 ef e9 3c b3 e1 eb bd 89 df 45 bd
       -0.030191496 0.028556388 -0.11517658 -0.048308883
000050 fb e7 5f bd a6 35 1e bd 68 95 bf 3c bb c0 23 bd
       -0.054664593 -0.038625382 0.023386672 -0.039978724
000060 a7 c1 09 3e 01 e3 43 3d 3a c8 7f 3c 08 97 38 be
       0.13452779 0.04782391 0.015611703 -0.18026364
000070 ff dc 3a bd 43 f8 8e bc 0f be c6 3d d2 fe 8c bc
       -0.045620915 -0.017452365 0.097042195 -0.017211352
000080 a6 97 78 bc be 7f af b9 27 97 a6 bc 72 e0 41 3c
       -0.015172875 -0.00033473776 -0.020335747 0.011833297
000090 17 d3 67 3d 1d 1a 57 3c 68 6d c1 3d 52 21 84 3b
       0.056597795 0.0131287845 0.09444696 0.0040322924
0000a0 12 4c eb bc 11 08 8b bd a2 91 05 bd d4 db c5 3d
       -0.028722797 -0.06788648 -0.03260959 0.096610695
0000b0 72 5a da 3c 21 87 f2 bc 69 07 d4 b8 9d a6 df 3a
       0.026654456 -0.02960545 -0.00010110328 0.0017063204
0000c0 81 84 99 bc 98 54 ac bd cb 29 24 bd 74 1a 17 bd
       -0.01873994 -0.084145725 -0.04007892 -0.036890462
0000d0 e0 ff d0 3d 87 fd fd ba b6 2b 00 3b dc c9 e6 bc
       0.10205054 -0.0019377925 0.0019557304 -0.028172426
0000e0 9d 1a 41 bd f7 96 c7 3c b8 bd 8c bc 37 51 a9 3b
       -0.04714452 0.024363978 -0.017180309 0.0051671523
0000f0 11 3b 77 3c c3 58 2c 3c 35 e0 8c 3d ad 30 87 bc
       0.015089766 0.010519209 0.068787016 -0.016502703
000100 b8 33 38 bd ef 87 cc bc bf b3 b7 bc 94 aa 43 3e
       -0.044971198 -0.024967162 -0.022424577 0.19108039
000110 d0 82 9f 3d a8 1b 19 be 18 4b d8 bc e4 6b c6 3c
       0.077886224 -0.14951956 -0.026402995 0.024221368
000120 46 b4 cf bd 0e af d1 3d 2b 21 ca 3d a1 71 3c 3e
       -0.10141806 0.10238467 0.098696075 0.18402721
000130 a5 ef 50 be f4 45 37 be d6 d6 51 be 25 32 85 bd
       -0.20403917 -0.17897779 -0.2049211 -0.06503705
000140 a9 02 f7 3c 63 ff a4 3d 06 0b 81 3d f7 51 c4 bc
       0.030152636 0.08056524 0.06300931 -0.023964865
000150 1d e1 90 bd c8 ee a6 3d fb a4 55 bd 77 20 09 bd
       -0.07074187 0.08151013 -0.05215929 -0.033478227
000160 cd b7 77 bc c7 f9 30 be 7e d0 91 bd 0d 09 41 3c
       -0.015119505 -0.17282782 -0.07119845 0.011781943
000170 d5 27 e6 3d bf ec b2 3d 52 17 82 bd 23 53 7a be
       0.11238066 0.08736562 -0.06352104 -0.24445777
000180 a7 64 a0 3d df 64 6b bc 5e 4f dc ba 93 7e 2e be
       0.07831698 -0.014367311 -0.0016808321 -0.17040472
000190 ff e0 b4 3b 56 1f 1f bd e9 83 3c bc 2d 53 9f 3d
       0.0055199857 -0.038848244 -0.011506059 0.077795364
0001a0 88 ce 9e 3d 91 f1 e6 bb 8f 36 f2 3c e3 51 7f bd
       0.077542365 -0.00704784 0.029567031 -0.062333953
0001b0 cd a4 bc 3b 2a af 34 3e 17 0f ee 3c cc 9c 15 bd
       0.0057569505 0.17644945 0.02905993 -0.036526486
0001c0 77 12 48 3d b1 b9 28 3e c1 f0 c6 bc 52 83 b2 3c
       0.048845734 0.16477086 -0.024284722 0.021791134
0001d0 78 e7 b1 3d 72 34 54 3d 4d 37 9b 3b 9a 1a 78 3d
       0.08686727 0.05180783 0.004736817 0.060572244
0001e0 0a d5 62 bd b8 40 a1 bc 81 37 60 3b 66 25 2e 3d
       -0.05537895 -0.01968418 0.003421277 0.042516135
0001f0 07 dd 34 bd 65 e6 d4 bc 7a 74 e2 3d 8d 23 da bc
       -0.0441561 -0.025988767 0.110573724 -0.02662828
000200 85 5b 25 bc 7a 3c 72 3b 5f 2b b6 3c 81 c1 56 3c
       -0.010092621 0.0036962316 0.022237478 0.013107658
000210 cb 4d 34 3d cb ac 6d 3d b6 22 33 3d 4e 80 29 bc
       0.0440195 0.058026116 0.043734275 -0.010345532
000220 93 a4 48 bd 37 3d a4 bc d4 ad e4 3c c2 1e 50 3d
       -0.048985075 -0.02004872 0.027914919 0.050810583
000230 28 f0 89 3c f1 56 bc bc 44 06 ac bd 46 14 da bd
       0.016838148 -0.022990676 -0.083996326 -0.10648398
000240 20 ce 13 3d 0b 3e a4 3d 82 c4 e4 3a 68 5d 0a bd
       0.036085248 0.08019646 0.0017453583 -0.033780485
000250 7d f0 a8 bc a2 d5 4f bb a7 d5 02 be fd 5f 09 3c
       -0.020622486 -0.0031713028 -0.12776814 0.008384702
000260 bf 27 d2 3d 95 ac 5c bd 3a d7 01 3d c5 01 41 3d
       0.10261487 -0.053875525 0.031699397 0.04712083
000270 90 d0 47 bb ac 6a 39 bd 36 b2 a3 bd f9 73 da 3a
       -0.0030489303 -0.045267746 -0.079929754 0.0016666643
000280 20 36 f0 3c 03 cf 8e 3c 5a db 14 bd cf 03 ac 3c
       0.029322684 0.017432695 -0.036342002 0.02099791
000290 57 02 9d 3c 0f 8e 18 3d 6e ee 97 3a 52 02 7c 3d
       0.019166155 0.037244853 0.0011591443 0.06152565
0002a0 5c 8d 51 bd 42 90 1c 3d 7b 3f a4 bc 39 ee 39 3d
       -0.0511602 0.038223512 -0.020049801 0.045393202
0002b0 90 4d a7 3c 8a f6 2b 3d 40 45 4b bd 2d 80 38 bd
       0.020422727 0.041983165 -0.04962659 -0.045044113
0002c0 04 55 ac bc b2 c5 ba 3d 4f 72 48 3c 3c 07 3b 3c
       -0.021036632 0.09119739 0.012234285 0.011415299
0002d0 51 3e d0 bc dc 22 56 bd a1 df ea 3c 42 8c 56 3b
       -0.02542034 -0.05227934 0.028671088 0.0032737409
0002e0 b3 74 e1 3d e4 7f da bc cb 77 49 bd 87 46 61 3d
       0.11008587 -0.026672311 -0.04918651 0.0549989
0002f0 3c 3a e3 bb 1a b0 dc 39 04 0c 79 bc 52 af 86 3c
       -0.0069344323 0.00042092876 -0.015200619 0.016441021
000300 46 e8 5e 3b f2 f9 4b 3b 6f 97 b0 3d af 6f 85 bc
       0.0034012957 0.003112432 0.08622634 -0.016288606
000310 29 e6 d5 3c ad e3 99 3c 56 b4 11 3d 00 8b 71 bc
       0.026110725 0.018785322 0.035572372 -0.014742613
000320 ff 41 5d 3c 28 14 65 3c 38 21 a4 bb bb f5 a4 3d
       0.013504504 0.013981856 -0.005008843 0.08054682
000330 5b 51 2b bd 9d bd 61 3c cb 00 d3 3c 10 c2 29 3d
       -0.041825633 0.0137781175 0.025757214 0.041444838
000340 09 54 3a bc 00 0b 90 bd ca 2d aa 3d ce d9 ce bb
       -0.011372575 -0.07033348 0.08309515 -0.0063125854
000350 a7 ee 3c bd d4 93 84 bc c1 0c 9f 3b d0 d0 3a 3d
       -0.046126034 -0.016183771 0.0048538153 0.045609295
000360 c5 f9 9f 3c ac 39 76 3c 98 19 3d bd a9 34 19 3d
       0.01952828 0.0150283985 -0.046166986 0.037403736
000370 66 b0 d9 3b 3c 42 20 3c ac 15 54 3c 8f 6f 06 bd
       0.006643343 0.0097814165 0.01294462 -0.032821234
000380 c5 32 51 3d a0 68 b1 3c e7 50 ff bb 2f 39 13 bb
       0.05107381 0.021656334 -0.0077916267 -0.0022464504
000390 af a4 db 3c 34 15 40 3d a0 c4 e3 3c 9a 95 9e 3d
       0.026811926 0.04689522 0.027803719 0.07743378
0003a0 ce 98 71 3c 29 a0 93 3c da 88 e4 3c 93 28 03 3d
       0.014745904 0.018020706 0.027897287 0.032021116
0003b0 75 46 1c 3d cd 2c 08 bd d5 e3 1b bd 24 38 ec 3c
       0.03815313 -0.03324585 -0.038059074 0.028835364
0003c0 bb 90 d3 bb 36 e3 7f bb fb 4e 7f 3d e8 ad eb 3d
       -0.006456462 -0.003904534 0.06233118 0.11507779
0003d0 b1 a3 60 bd 8a ab e4 3c ec 17 8b 3d 66 f8 20 3d
       -0.05484361 0.027913827 0.06791672 0.03929939
0003e0 55 aa d4 3c 5d 83 40 bd a6 ce c5 bb ec 16 f9 bc
       0.025960127 -0.047000278 -0.0060365973 -0.030406438
0003f0 36 ac 11 be 28 6a 27 3c 77 39 0a 3d 37 e4 a3 bc
       -0.1422585 0.010218181 0.03374621 -0.020006282

bias f4 [64]
000000 04 f6 3a 3e 0c d7 90 be f1 d9 0f bf be a9 a2 3e
       0.1825791 -0.28289068 -0.5619193 0.31770128
000010 2e 78 f1 bd e7 7a 8d be 41 80 d1 bd aa dc 50 be
       -0.117905006 -0.2763283 -0.102295406 -0.20396677
000020 8c b6 0e bf 91 f3 42 be 69 33 8d 3e 23 1b 29 bf
       -0.55747294 -0.19038226 0.27578285 -0.6605703
000030 ca e5 86 be fa 8d 72 be 28 38 ba bd 46 37 0c be
       -0.2634719 -0.23686972 -0.09092742 -0.1369296
000040 ff c9 20 be 19 a3 f0 bd 62 ff 10 be 04 14 f3 be
       -0.15702055 -0.117498584 -0.14159921 -0.47476208
000050 77 e2 45 be 52 ce b6 bd 8f 59 9e be 05 d2 40 be
       -0.1932467 -0.08926071 -0.30927703 -0.18830116
000060 23 84 1a be af 00 28 bc e2 9b 53 be eb b6 89 be
       -0.15089469 -0.010254069 -0.20664933 -0.26897368
000070 41 9f b8 3d 49 85 57 bd d8 20 45 bf f6 cf d8 bd
       0.0901475 -0.052617345 -0.7700324 -0.105865404
000080 34 a0 be bd a1 ea f3 3e ae a2 e9 be cf d0 c9 bd
       -0.093079 0.47639945 -0.45631927 -0.0985428
000090 09 f3 9e be 6c fe 48 3d 64 15 6d 3e cb c5 9a be
       -0.31044796 0.04907076 0.23152691 -0.3022903
0000a0 a6 10 6d be 1b 92 cb be 68 8a 51 3c 77 72 97 be
       -0.23150882 -0.39759907 0.012789346 -0.29579517
0000b0 5b 27 57 be 23 e1 03 bd e1 b4 b1 be 87 b8 dc be
       -0.21011107 -0.03219713 -0.34708312 -0.43109533
0000c0 fe dd 22 be 87 e7 89 3d 0c 53 f4 bd 46 e7 ac bd
       -0.15904996 0.067336135 -0.119299024 -0.084425494
0000d0 ef 39 61 be e1 e2 8e 3e 1b c2 24 be 89 cb c7 bd
       -0.21994756 0.2790747 -0.1608967 -0.09755618
0000e0 94 66 26 be be 1a 63 3e 9d dc 09 3e 82 b4 dc be
       -0.16250068 0.2217817 0.13463064 -0.43106467
0000f0 4b 73 d2 3e 33 ee 2a be 5e 04 a0 be 9b 4e 52 be
       0.41103587 -0.16692428 -0.31253332 -0.20537798

weight f4 [1, 64]
000000 48 21 e7 3a 51 5c 60 3a 0b c5 da 3c 23 bc a7 3b
       0.001763382 0.0008558678 0.026705286 0.005118863
000010 4f a2 87 3a 17 e6 63 3a 2d d2 ee 3b 52 f6 18 3c
       0.0010348054 0.0008693649 0.0072882385 0.009336071
000020 ff 3b 80 3e ae b9 82 ba 72 39 7a bd bf 5b 1b 3c
       0.25045773 -0.000997355 -0.06108994 0.009482323
000030 56 37 2c 3b b2 a4 5e bb ec 81 69 bc 77 ce 85 3b
       0.00262781 -0.0033972678 -0.014252167 0.0040834504
000040 cd 18 0e 3b de 8d 94 3a 90 2d 1d ba 6f 53 96 3b
       0.0021682263 0.0011333784 -0.0005995864 0.004587583
000050 a1 05 bb 3b 10 d8 51 3b 73 52 a9 b7 fe 3e a6 3d
       0.005707458 0.0032019652 -2.0184763e-05 0.081174836
000060 7e 41 99 3b 5c b3 7d 3b 07 43 9a 3b 34 4c 08 3c
       0.0046769967 0.0038711643 0.0047076973 0.0083189495
000070 1d 59 7f 3a 8e 3e 20 3b ce 52 e2 3d 8a 32 a4 3a
       0.0009740757 0.0024451348 0.1105095 0.0012527269
000080 c1 c0 b1 3a cb 01 48 bd 27 ec c0 3d 64 e1 df 3b
       0.0013561473 -0.048829835 0.094200425 0.0068322886
000090 0f d3 8c 3b f7 a6 4c bb 31 6a 2e 3b 0b 04 8f 3b
       0.004297621 -0.0031227448 0.0026613588 0.0043644956
0000a0 ab 1c 35 3c 6b 3e 8e 3a 19 ba 59 bb 4d 14 87 3a
       0.011054198 0.0010852342 -0.0033222495 0.0010305733
0000b0 34 6c 9c ba c0 ab 90 3a 44 fe 3a 3b 03 b1 27 3c
       -0.0011934103 0.0011037514 0.0028532902 0.010235074
0000c0 46 d3 10 3c 28 e4 1e 3a 46 e4 8d 3b b6 2c a1 ba
       0.008839434 0.00060612196 0.004330191 -0.001229665
0000d0 78 0e c0 3b a8 e2 d3 bc 79 1a 13 3c 49 bf cb 38
       0.0058611 -0.025864914 0.00897848 9.715424e-05
0000e0 81 89 03 39 77 69 62 3b f1 1c c7 bd 8a c5 ad 3b
       0.00012544358 0.0034547725 -0.09722317 0.0053030895
0000f0 31 ca 3a bd c3 34 a1 3b 27 60 41 3b 89 29 1d 3b
       -0.04560298 0.0049196198 0.0029506774 0.0023981056
